resources/acc44_snn_cifar10.pth (torch, 385037 bytes, 6 tensors)

0.weight f4 [32, 3, 5, 5]
0	0x3dac9957	0.08427685
1	0x3de0f8f4	0.10984984
2	0x3cd188f7	0.025578005
3	0xbdf98908	-0.1218434
4	0xbd403250	-0.04692298
5	0x3d167aa4	0.036738053
6	0x3d086e3b	0.03330825
7	0xbdd01abd	-0.1016135
8	0x3db95bd9	0.09050722
9	0x3d140d36	0.03614541
10	0xbd9a7ffd	-0.07543943
11	0x3d88436c	0.06653485
12	0x3de27e47	0.11059242
13	0x3d4d4347	0.05011299
14	0x3c229861	0.009924025
15	0xbd99ded3	-0.075132035
16	0x3c97697f	0.018482922
17	0x3d88c19f	0.06677555
18	0x3d8ebf83	0.06970122
19	0x3da13823	0.07872035
20	0xbd3b1ba5	-0.04568066
21	0x3dcdd122	0.100496545
22	0xbd278e74	-0.04090734
23	0xbdd4da40	-0.103931904
24	0x3d2217ef	0.039573606
25	0xbdbc6058	-0.091980636
26	0x3d2ce99c	0.042214975
27	0xbdfc0721	-0.12306047
28	0xbdfe4f41	-0.1241746
29	0x3d482f93	0.048873495
30	0x3dd3f97b	0.10350319
31	0xbd70c82e	-0.058784656
32	0x3bcacdaf	0.00618907
33	0xbdf68e92	-0.12038912
34	0xbd39d983	-0.04537345
35	0x3da9f6c3	0.08299019
36	0xbdcc7887	-0.09983926
37	0xbd56f3f3	-0.05247874
38	0x3d1022e5	0.035189528
39	0xbd13802a	-0.0360109
40	0x3d7bc7e3	0.061469924
41	0x3db93265	0.09042815
42	0xbcb6376f	-0.02224323
43	0x3cc661fe	0.024216648
44	0xbd13e637	-0.03610822
45	0xbdb4525f	-0.088047735
46	0xbd0ca48f	-0.034336623
47	0xbda7a91b	-0.08186551
48	0xbd306d3e	-0.04307293
49	0xbc0cfece	-0.008605672
50	0x3d238946	0.039925836
51	0x3de109c5	0.109881915
52	0xbd8a1765	-0.067427434
53	0x3cc00a6c	0.02344247
54	0xbdf9bf14	-0.121946484
55	0x3dbb6ff4	0.09152213
56	0xbcc16d6a	-0.023611743
57	0x3d9fcf54	0.078032166
58	0x3c401673	0.011724102
59	0x3d8dbb43	0.06920483
60	0x3d651705	0.055930156
61	0x3dce5819	0.10075397
62	0xbd93cad0	-0.07216418
63	0x3da1f79f	0.07908558
64	0xbda0230a	-0.07819183
65	0x3ca02bbb	0.019552102
66	0xbd09fa66	-0.033686064
67	0x3d145d1b	0.036221605
68	0xbdcd3f7c	-0.10021874
69	0x3db11b73	0.08647814
70	0x3deed227	0.11661177
71	0xbc72293d	-0.01478034
72	0x3dc936ca	0.09824903
73	0x3dc20783	0.09474089
74	0x3dbdff52	0.09277214
75	0xbd03b02d	-0.032150436
76	0x3d011f64	0.031524077
77	0x3d4c60a0	0.049896836
78	0x3cc62b0f	0.024190454
79	0xbc94fce4	-0.018186994
80	0x3d3fc3d9	0.046817634
81	0xbbac1031	-0.0052509536
82	0x3dc7151a	0.09720822
83	0xbd01a7ec	-0.031654283
84	0x3d9d66d7	0.07685631
85	0xbdaae3e2	-0.083442464
86	0x3d484dbf	0.04890227
87	0x3c122b58	0.008921467
88	0x3e017e92	0.12645939
89	0x3d5a70ba	0.05333016
90	0x3d05bd54	0.03265126
91	0xbd2d6dd9	-0.042341087
92	0x3e0056a8	0.12533057
93	0x3c7e1fa2	0.015510472
94	0xbc4c51d8	-0.012470685
95	0x3d99f133	0.07516708
96	0xbda718b6	-0.0815901
97	0x3d9dffe4	0.07714823
98	0xbd880c4d	-0.06642971
99	0x3d98b040	0.07455492
100	0xbd38d6ba	-0.045126654
101	0x3e01e5a6	0.1268526
102	0xbc78b6bd	-0.015180287
103	0x3d7c6708	0.061621696
104	0xbd00014a	-0.03125123
105	0xbc967d73	-0.018370366
106	0xbd824d7c	-0.06362435
107	0x3d669479	0.05629394
108	0xbd54c250	-0.051943123
109	0x3d98ad5f	0.07454943
110	0x3dbde03e	0.092712864
111	0x3ddf2dd9	0.108974166
112	0x3d88a396	0.066718265
113	0xbd2de2db	-0.042452674
114	0xbdb5d074	-0.0887765
115	0x3d10ae44	0.035322443
116	0x3dbf36d8	0.093366325
117	0x3d1deaef	0.03855413
118	0xbdaaf7ef	-0.08348071
119	0xbdc45fd4	-0.0958859
120	0x3d225861	0.039635066
121	0xbc70b770	-0.014692172
122	0xbd3c8601	-0.046026234
123	0x3d350bd7	0.044200744
124	0xbd784d48	-0.060620576
125	0xbc5349af	-0.0128959855
126	0xbdeebe07	-0.116573386
127	0xbd965d4a	-0.07342012
128	0xbd83d44f	-0.06436979
129	0xbdddc328	-0.10828239
130	0xbcc84694	-0.024447717
131	0x3d5ab758	0.053397506
132	0xbccd4aba	-0.025060046
133	0xbce41b9f	-0.027845202
134	0xbd9486f6	-0.07252304
135	0x3da337ad	0.07969604
136	0xbddf8cbf	-0.10915517
137	0xbceeb76b	-0.029140195
138	0xbdc42228	-0.09576827
139	0x3c573079	0.013134115
140	0xbd08a950	-0.033364594
141	0x3d740d45	0.059582967
142	0x3c788578	0.01516854
143	0xbd56aab1	-0.052408878
144	0x3d8846ec	0.06654152
145	0x3d980fe2	0.074249044
146	0x3dcab75c	0.09898254
147	0x3cde0e94	0.02710656
148	0xbde69b5e	-0.11260103
149	0xbcc7ca1a	-0.024388362
150	0x3c89cc7c	0.016821139
151	0xbe29e4f6	-0.16591248
152	0xbe103886	-0.14084062
153	0xbd6ad844	-0.057335153
154	0xbc3824bc	-0.011239227
155	0xbd48c1a6	-0.049012803
156	0xbd90d9e7	-0.070728116
157	0xbe11cb42	-0.14237693
158	0x3d9cbc1c	0.076530665
159	0xbdbfed5b	-0.09371444
160	0x3d9b32f1	0.07578076
161	0xbdb46881	-0.08808995
162	0x3dc30d97	0.095240764
163	0x3a80f442	0.000983842
164	0x3dc20c9e	0.09475063
165	0xbde2c4e4	-0.1107271
166	0xbd8374f3	-0.06418791
167	0xbb9aae9d	-0.0047205226
168	0x3da04bd0	0.0782696
169	0xbd4c8395	-0.049930174
170	0x3beee697	0.007290672
171	0xbb2671c2	-0.0025397395
172	0xbd87a66e	-0.06623541
173	0x3d901eba	0.070371106
174	0x3d7af492	0.061268397
175	0x3c6ec14c	0.014572453
176	0xba5d4d5a	-0.0008442007
177	0xbdf67871	-0.12034691
178	0xbcae380c	-0.02126696
179	0x3d895e4e	0.0670744
180	0xbdd7ec66	-0.10543136
181	0xbdf54ea8	-0.11977893
182	0x3d90d575	0.07071964
183	0xbdcb0910	-0.09913838
184	0x3d193ad6	0.037409626
185	0x3b67ae4b	0.003535169
186	0x3d2dab65	0.042399783
187	0x3de24dc2	0.110499874
188	0x3dbcfda5	0.09228066
189	0x3db9b25a	0.09067221
190	0x3d5120c8	0.051056653
191	0x3dbff719	0.09373302
192	0xbdef1b5e	-0.11675142
193	0x3d16fb39	0.03686068
194	0x3de3f692	0.11131014
195	0xbc6f853b	-0.014619167
196	0xbd49c333	-0.049258422
197	0xbdef9346	-0.11698012
198	0xbcd0b3c6	-0.025476348
199	0xbd2fd1e9	-0.042924795
200	0xbd9c14cf	-0.076211564
201	0xbdc95073	-0.098297976
202	0x3d6a9180	0.057267666
203	0xbd8730bb	-0.066010915
204	0x3d577572	0.05260224
205	0x3d9a1c01	0.075248726
206	0x3d3683f7	0.044559445
207	0x3cc017a7	0.023448778
208	0x3d58e910	0.05295664
209	0x3ddbf6d9	0.10740442
210	0x3d406a31	0.046976272
211	0xbc31010c	-0.010803472
212	0xbb9111b2	-0.0044271583
213	0x3dae521f	0.08511757
214	0x3de5a7b2	0.11213626
215	0x3c40133a	0.011723334
216	0x3ddd634d	0.10809956
217	0xbcdcd5b7	-0.026957376
218	0x3db3f085	0.0878611
219	0xbd57e31c	-0.052706823
220	0xbca683f1	-0.020326586
221	0xbd5ac1d3	-0.0534075
222	0x3df4328f	0.11923706
223	0x3ddc83f5	0.10767356
224	0x3dcc7632	0.099834815
225	0xbdf481b3	-0.11938801
226	0xbdcaea1d	-0.09907935
227	0x3ce57b72	0.028012965
228	0xbe0ae6df	-0.13564633
229	0xbd30ed31	-0.043194953
230	0xbd3eaba0	-0.046550393
231	0xbdea722e	-0.11447559
232	0x3d84aa1c	0.06477758
233	0x3d9a2a29	0.07527573
234	0x3cfddd2a	0.030989248
235	0x3d38924a	0.045061387
236	0x3dbe504d	0.0929266
237	0xbd57c9f2	-0.052682824
238	0xbd416d60	-0.04722345
239	0xbd889c8e	-0.066704854
240	0x3c747fbf	0.014923035
241	0x3d5529bf	0.052041765
242	0x3cb55e76	0.022139769
243	0xbd85b9bf	-0.06529569
244	0x3d84dffa	0.06488033
245	0xbd33e2ab	-0.04391734
246	0xbdf48828	-0.11940032
247	0xbd26ca42	-0.04072023
248	0xbd90fa1e	-0.07078956
249	0x3d4c6486	0.049900554
250	0xbdd82947	-0.10554748
251	0x3b97b770	0.0046300218
252	0x3c744794	0.014909644
253	0xbde1e37b	-0.110297166
254	0x3d03337d	0.032031525
255	0xbd88a61f	-0.0667231

0.bias f4 [32]
0	0xbd9079a3	-0.0705445
1	0x3dd676e3	0.104718946
2	0xbc0f1af7	-0.008734456
3	0x3b7ab8be	0.0038257088
4	0x3d7ad81b	0.06124125
5	0xbe16ac1c	-0.14714092
6	0xbd3a810d	-0.04553323
7	0x3ded2f73	0.11581316
8	0x3df393ab	0.118934
9	0xbd0bafad	-0.034103084
10	0xbd4a27d3	-0.049354386
11	0x3d65a8d7	0.05606922
12	0x3dac5c73	0.08416071
13	0xbcd4fea4	-0.026000328
14	0xbd5b83d3	-0.053592514
15	0x3cf180f6	0.029480439
16	0xbda480b6	-0.08032362
17	0x3df1838b	0.11792668
18	0x3dd29f44	0.10284284
19	0xbdf8df00	-0.12151909
20	0xbe00ba5e	-0.12571093
21	0x3d973709	0.07383544
22	0x3e151437	0.14558493
23	0xbd9cbc28	-0.076530755
24	0x3db0c421	0.086311586
25	0xbcc0b529	-0.023523884
26	0x3e0d6596	0.13808283
27	0x3ce9c5b3	0.028536653
28	0xbd452169	-0.048127566
29	0xbddb428b	-0.107060514
30	0x3c6488ed	0.013948661
31	0x3cbd2d74	0.023092963

3.weight f4 [64, 32, 5, 5]
0	0xbcded569	-0.027201371
1	0xbc194b68	-0.009356357
2	0xbc8cd45b	-0.017191103
3	0xbc614170	-0.013748512
4	0xbb03e264	-0.0020123953
5	0xb9ab0f96	-0.00032627274
6	0xbc492d69	-0.012278893
7	0xbc320fc3	-0.010868016
8	0xbd35138d	-0.0442081
9	0xbd3f0dff	-0.046644207
10	0x3c6e09ff	0.01452875
11	0xbd39427a	-0.045229413
12	0x3a05f16a	0.0005109521
13	0x3c5160a7	0.012779391
14	0x3c69faf0	0.01428102
15	0x3c0212fa	0.007939095
16	0xbb76e395	-0.003767227
17	0x3ba80041	0.0051269834
18	0xbcd29f61	-0.025710763
19	0xbc6f288f	-0.014597072
20	0xbd13899d	-0.03601991
21	0x3c3fb6c4	0.01170129
22	0xbc0a7430	-0.008450553
23	0xbd063d43	-0.032773267
24	0xbd56edef	-0.052473005
25	0xbd25aead	-0.040449787
26	0xbd09664e	-0.03354483
27	0xbd950b5c	-0.07277557
28	0xbd2c6819	-0.042091463
29	0xbdb65c41	-0.08904315
30	0xbc6c258f	-0.014413252
31	0x3cba9528	0.022776201
32	0xbd0991fa	-0.03358648
33	0xbc9630d3	-0.018333828
34	0xbd91f369	-0.07126505
35	0xbcb134e3	-0.021631664
36	0xbcd6bbe5	-0.026212642
37	0x3c2ae063	0.0104294745
38	0xbcb52b97	-0.022115512
39	0xbc5da804	-0.013528828
40	0xbc78834a	-0.0151680205
41	0xb891bd01	-6.9493435e-05
42	0xbcf94620	-0.030428946
43	0xbd4dcbba	-0.050243117
44	0xbd69875a	-0.057013847
45	0xbc0f38ba	-0.008741552
46	0xbcc1dc37	-0.023664577
47	0xbade4b70	-0.0016959738
48	0xbcdd2c43	-0.026998645
49	0xbd905c2b	-0.0704883
50	0xbc0393c2	-0.008030834
51	0xbb986f8c	-0.0046519693
52	0xbd41075e	-0.047126167
53	0xba16c696	-0.00057516375
54	0xbd02fecb	-0.03198127
55	0x3c25675c	0.010095444
56	0x3c1aabca	0.009440372
57	0xbcad2fc6	-0.021140944
58	0xbca37ca4	-0.019956894
59	0xbcc7b213	-0.024376905
60	0xbd3c1baa	-0.04592482
61	0xbc40af1b	-0.011760498
62	0xbc1f424b	-0.009720395
63	0x3c928465	0.017885396
64	0xbcd3d8c0	-0.02586019
65	0x3c4dddaa	0.012565056
66	0xbd03ae8b	-0.03214888
67	0x3c7e8550	0.015534714
68	0xbd216234	-0.039400294
69	0xbd5f75f9	-0.054555867
70	0x3c5441ad	0.012955111
71	0xbcd71182	-0.026253466
72	0xbc9541e2	-0.018219892
73	0xbd5b7bd9	-0.053584907
74	0xbd409b90	-0.047023356
75	0xbd5649ad	-0.052316356
76	0x3b05f91b	0.0020442668
77	0xbd556e11	-0.05210692
78	0x3c65268c	0.013986241
79	0xbcd1a59d	-0.025591666
80	0x3a51b473	0.00079996063
81	0xbd313399	-0.043262098
82	0x3c897d00	0.016783237
83	0xbd4cabeb	-0.04996864
84	0xbd0fe752	-0.035132714
85	0xbca4a0a7	-0.020096136
86	0xbc0f342f	-0.008740469
87	0xbd071157	-0.03297552
88	0xbd438aec	-0.047739908
89	0xbc80b231	-0.015709968
90	0xbcee01a1	-0.029053511
91	0xbd3651df	-0.044511672
92	0xbd1b3278	-0.037889928
93	0xbc8521a3	-0.01625139
94	0xbc198b70	-0.009371623
95	0xbd3e7edd	-0.046507705
96	0xbca37974	-0.019955374
97	0xbcc3582a	-0.02384575
98	0xbc536096	-0.012901446
99	0xbc5bf107	-0.013424165
100	0x3c933da0	0.017973721
101	0xbb8079d2	-0.003920772
102	0x3c5982ae	0.013275785
103	0xbc379cc5	-0.01120681
104	0x3cbd243b	0.023088565
105	0x3c923034	0.01784525
106	0x3c02e8f0	0.007990107
107	0x3c44e7cb	0.012018154
108	0xbcab80a5	-0.020935366
109	0xba8801ad	-0.0010376476
110	0x3c901868	0.017589763
111	0xbc678a76	-0.014132133
112	0x3ca94c3c	0.020666234
113	0x3c6a5911	0.014303462
114	0x3c09d50a	0.008412609
115	0x3b0b7c0e	0.002128366
116	0xbd0f4e51	-0.034986798
117	0x3c35f713	0.01110627
118	0xbc9a613c	-0.018845193
119	0x3c29cfca	0.010364482
120	0xbb99fa1f	-0.004699006
121	0xbd0597f2	-0.03261561
122	0x3ceb467b	0.028720131
123	0xbc0de20a	-0.008659849
124	0x3c83e342	0.016099576
125	0xbd9596ed	-0.073041774
126	0xbd911056	-0.07083194
127	0xbd109c27	-0.03530517
128	0xbd9b9c4f	-0.07598173
129	0xbdaac1bf	-0.083377354
130	0xbcab58e5	-0.020916412
131	0xbb0f72ab	-0.0021888416
132	0xbb488092	-0.0030594212
133	0xbd932ef4	-0.0718669
134	0xbd901629	-0.07035477
135	0xbd0c3c6d	-0.034237314
136	0x3c5080d0	0.012726024
137	0xbd10a6ae	-0.035315208
138	0x3c6e0ca2	0.014529379
139	0xbca037d3	-0.019557869
140	0xbba97873	-0.0051718294
141	0xbd156680	-0.036474705
142	0x3c19939a	0.00937357
143	0x3cb5115b	0.022103002
144	0x3c91f06b	0.017814836
145	0xbaf777d0	-0.0018880311
146	0x3c5fbb21	0.013655455
147	0xbcea5f8a	-0.02861001
148	0xbd311764	-0.043235198
149	0xbb27db5d	-0.0025612928
150	0xbc52bea9	-0.01286284
151	0x3d096d0b	0.033551257
152	0xbca1ced2	-0.01975194
153	0x3c8800f3	0.016602015
154	0xbd06d205	-0.032915134
155	0xbbb60817	-0.0055551636
156	0x3c1c4885	0.009538774
157	0x3a80a688	0.0009815255
158	0xbbabfc8a	-0.005248611
159	0xbc783b92	-0.015150921
160	0xba20c08c	-0.00061322073
161	0x3ae3367b	0.0017334962
162	0x3ccc12c0	0.024911284
163	0xbc4e9c82	-0.012610557
164	0xbc820473	-0.015871262
165	0x3c120ecb	0.00891466
166	0xbc913984	-0.01772762
167	0x3cade5df	0.021227775
168	0x3ce8fc17	0.028440518
169	0xbc41394c	-0.011793446
170	0xbc86e918	-0.01646857
171	0xbd0d5622	-0.03450597
172	0x3bf1770d	0.0073689283
173	0x3cd40dc3	0.025885468
174	0x3c4bc5af	0.012437268
175	0xbb959f58	-0.0045661144
176	0x3bc80cd3	0.0061050444
177	0x3c6a7265	0.0143095
178	0x3b9c8055	0.0047760406
179	0x3b643c55	0.0034826
180	0xbc252b84	-0.010081176
181	0xbccdeb3d	-0.025136584
182	0xbbad6c2e	-0.005292437
183	0x3cab51fc	0.020913117
184	0x3b31a823	0.0027108274
185	0xbd9a275f	-0.07527041
186	0xbd13ed99	-0.036115263
187	0xbd46ee9e	-0.048567407
188	0xbdbad0d1	-0.0912186
189	0xbda81206	-0.08206563
190	0xbd830f4c	-0.06399402
191	0xbd59abb9	-0.053142283
192	0xbd4a72c0	-0.04942584
193	0xbd842887	-0.064530425
194	0xbdbbf157	-0.09176891
195	0x3c282510	0.010262743
196	0xbb538dcb	-0.003228056
197	0xbd179dfe	-0.037015907
198	0xbd8300f7	-0.063966684
199	0xbd0813e3	-0.03322209
200	0x3d370b6e	0.044688635
201	0x3c9bc4e1	0.019014778
202	0x3d8c91a4	0.06863716
203	0x3ddb90bc	0.10720965
204	0x3dfc1d53	0.12310281
205	0x3ca990f6	0.020699006
206	0x3d0d39f2	0.03447909
207	0x3c46af05	0.012126689
208	0x3c401eb1	0.011726067
209	0x3d725ae3	0.059168708
210	0xbddc49bc	-0.10756251
211	0xbe13bb2a	-0.14426866
212	0xbe2114f3	-0.15730648
213	0xbdeb23e6	-0.114814565
214	0xbda4b2da	-0.08041926
215	0xbdb23706	-0.08701901
216	0xbde017e2	-0.10942055
217	0xbe34e970	-0.17667174
218	0xbe21f4db	-0.15816061
219	0xbe2203bf	-0.15821742
220	0x3a8388dc	0.0010035294
221	0xbc13ac55	-0.009013255
222	0xbcaa5950	-0.02079454
223	0xbc4aa4e5	-0.0123684155
224	0xbaa15a7d	-0.0012310293
225	0x3bd8f59f	0.006621077
226	0x3cab521b	0.020913174
227	0x3d0794d2	0.03310091
228	0xbd0811d8	-0.033220142
229	0xbb6c0b97	-0.003601765
230	0x3c9bd7f7	0.019023878
231	0xbbfdb4ca	-0.007742499
232	0xbcea591c	-0.028606944
233	0xbc861183	-0.016365772
234	0x3c70bf23	0.014694008
235	0xbc2de142	-0.010612788
236	0x3c95404d	0.018219138
237	0x3c2a3b43	0.010390106
238	0x3c9c3880	0.01906991
239	0xbcfe775e	-0.031062778
240	0x3b4a3424	0.0030853832
241	0x3cd9322f	0.026513187
242	0x3a6c8673	0.000902272
243	0xbc25314e	-0.010082556
244	0xbca67018	-0.020317122
245	0xbc878129	-0.01654108
246	0x3c4309de	0.011904208
247	0x3c4389b3	0.0119346855
248	0xb9af5062	-0.0003343849
249	0x3cbfd822	0.02341849
250	0xbd646e40	-0.055769205
251	0xbcd51f33	-0.026015854
252	0xbdc284cb	-0.094979845
253	0xbdac27e0	-0.08406043
254	0xbddbbe43	-0.10729649
255	0xbd1fc3c8	-0.03900507

3.bias f4 [64]
0	0xbd823765	-0.06358222
1	0x3c6b2981	0.014353157
2	0x3cd337de	0.025783475
3	0x3ba11663	0.004915999
4	0x3caa691c	0.020802073
5	0xbd086068	-0.033295065
6	0x3dbd0637	0.09229701
7	0x3c981ea0	0.01856929
8	0xbce55029	-0.027992325
9	0xbd1d612f	-0.03842276
10	0x3cd7cf27	0.026343895
11	0xbcb97ffa	-0.022644032
12	0xbd9aabea	-0.07552321
13	0x3bbf3e56	0.0058362884
14	0x3d559187	0.05214074
15	0xbc516f21	-0.012782843
16	0xbda87e22	-0.08227183
17	0x3c651fa8	0.013984598
18	0xbd6e0fdf	-0.058120605
19	0xbd490c29	-0.049083862
20	0x3c08d10d	0.008350623
21	0x3d458480	0.048222065
22	0x3dcd35a0	0.10019994
23	0x3dba59be	0.09099148
24	0xbd26b4dc	-0.040699825
25	0x3ca99b6e	0.020703997
26	0xbc9cc32d	-0.019136036
27	0x3c6d0eb5	0.014468838
28	0xbd50fd62	-0.051022895
29	0xbcacca85	-0.021092663
30	0x3b8136aa	0.003943284
31	0xbd75b085	-0.059982795
32	0xbd872fdf	-0.066009276
33	0x3cda8ab6	0.02667747
34	0xbb472d86	-0.0030392124
35	0x3c93778c	0.01800134
36	0xbd931165	-0.07181052
37	0xbd1a8d7e	-0.037732594
38	0x3dae0e47	0.08498817
39	0xbd3158dc	-0.043297634
40	0x3c33493d	0.010942754
41	0xbd23fbdd	-0.040035117
42	0x3c916443	0.017748004
43	0xbd275f18	-0.040862173
44	0xbbcaf85a	-0.0061941566
45	0xbd5e2920	-0.05423844
46	0x3d98567e	0.07438372
47	0xbce1950c	-0.027536891
48	0xbd109647	-0.035299566
49	0xbcb5e3da	-0.022203375
50	0xbd36a9b1	-0.044595424
51	0x3d3ec70b	0.04657654
52	0x3d6c0995	0.057626326
53	0xbd69c304	-0.057070747
54	0xbc6e30c0	-0.01453799
55	0xbc01c53f	-0.007920562
56	0xbda02021	-0.07818628
57	0x3db3ef6d	0.08785901
58	0x3c67a4ac	0.014138382
59	0xbd3c9ad9	-0.04604611
60	0xbd71f721	-0.05907357
61	0x3d057002	0.032577522
62	0x3c48878e	0.01223935
63	0xbc2f2c4b	-0.010691713

7.weight f4 [10, 4096]
0	0xbc5c0fca	-0.013431499
1	0xba9b74ad	-0.0011860334
2	0x3c1689be	0.009188114
3	0x3cc08507	0.023500932
4	0x3bce7e94	0.0063017104
5	0x3c36feb9	0.011169129
6	0x3cb8df59	0.022567438
7	0xbc4600f2	-0.012085186
8	0x3b82eea8	0.003995735
9	0x3cb4c252	0.022065315
10	0x3c0f6cfc	0.008754011
11	0x3c369c33	0.011145639
12	0x3b9d8be0	0.004807934
13	0x3ca3734e	0.019952442
14	0x3bc0bd42	0.0058819363
15	0x3b8c46fb	0.0042809225
16	0xbcad224c	-0.021134518
17	0xbb9656ce	-0.0045879846
18	0x3ab714eb	0.0013968026
19	0xbb80ab43	-0.003926666
20	0x3cf6fce0	0.030149877
21	0x3d767eb4	0.060179427
22	0x3d087c8a	0.033321895
23	0xbbdc14d6	-0.006716351
24	0x370bcd2c	8.332816e-06
25	0x3c50458f	0.012711897
26	0xbcc8d055	-0.024513403
27	0xbce4cd9d	-0.027930075
28	0xbd5ad4ea	-0.053425707
29	0xbd67ba27	-0.056574013
30	0x3b9e67aa	0.004834135
31	0x3c7eca2f	0.015551134
32	0xbc5a1f3e	-0.013313113
33	0xb978f136	-0.00023740981
34	0x3c789255	0.015171607
35	0xbcdc7de0	-0.02691549
36	0x3c8f41b5	0.017487386
37	0xbd18dd92	-0.03732068
38	0xbc89e5f6	-0.016833287
39	0x3c62cd69	0.013842919
40	0xbd048a31	-0.032358352
41	0xbccf5d14	-0.025312938
42	0xbbb1fcbd	-0.00543174
43	0xbd0eef8e	-0.034896426
44	0xbd57efc9	-0.05271891
45	0xbdb29482	-0.08719732
46	0xbd131a45	-0.035913724
47	0xbd0df7b2	-0.03466005
48	0xbca90e67	-0.02063675
49	0x3b7fe152	0.0039044213
50	0x3bab8a2d	0.0052349777
51	0xbcbafdd0	-0.022826105
52	0xbd0f3589	-0.034963164
53	0xbd093e4c	-0.033506677
54	0xbc17f861	-0.009275527
55	0xbb4acf83	-0.003094644
56	0xbcd860b1	-0.026413294
57	0xbda49170	-0.080355525
58	0xbd71f527	-0.059071686
59	0xbd924a6b	-0.071431
60	0xbd0e44f3	-0.034733724
61	0xbd807764	-0.06272772
62	0x3b070414	0.0020601796
63	0xbd53de09	-0.05172542
64	0xbdb58f94	-0.08865276
65	0xbbf21696	-0.0073879464
66	0xbcb2c8d5	-0.02182428
67	0xbd0ef746	-0.034903787
68	0x3bab42a4	0.00522645
69	0xbd050422	-0.032474644
70	0xbd13ccdb	-0.036084037
71	0xbd920815	-0.07130448
72	0xbc775940	-0.015096962
73	0xbc7230df	-0.01478216
74	0xbbd676ed	-0.006544939
75	0xbc4daf96	-0.01255407
76	0xbc74da79	-0.014944666
77	0x3b3f7637	0.0029214749
78	0xbbbaba2c	-0.005698463
79	0xbc621eb5	-0.013801266
80	0x3b99445d	0.004677339
81	0xbbdd7e01	-0.0067594056
82	0x3b71b0f2	0.003687915
83	0xbb90129e	-0.0043967506
84	0xbcd6800a	-0.0261841
85	0xbc5060b8	-0.012718372
86	0x393f7e3c	0.00018262205
87	0xbbf797ce	-0.0075559383
88	0xbb6acca5	-0.0035827544
89	0x3bade938	0.005307343
90	0xbcd5022d	-0.026002014
91	0xbc8272d5	-0.015923897
92	0xbc488e5d	-0.012240973
93	0xbc2b324a	-0.010449002
94	0xbc404284	-0.011734609
95	0xbd0c12ca	-0.034197606
96	0x3c9fd263	0.0195095
97	0x3bb9c9f3	0.005669826
98	0xbcbc4328	-0.022981241
99	0xbd1d82a8	-0.03845468
100	0xbd47d249	-0.048784528
101	0xbcbd00ff	-0.023071764
102	0xbca4ea7c	-0.020131342
103	0xbc016e92	-0.007899897
104	0x3cd4e25f	0.025986848
105	0xbbab4d75	-0.0052277395
106	0xbd4cda48	-0.050012857
107	0xbd458b56	-0.048228584
108	0xbce4ed2b	-0.027945122
109	0xbd1c4320	-0.038149953
110	0xbb927ab5	-0.004470194
111	0xbc7af27a	-0.0153166
112	0x3cac8c4d	0.021062994
113	0xbc9fd6ac	-0.019511543
114	0xbcd302e2	-0.02575821
115	0xbd08b868	-0.03337899
116	0xbd363863	-0.04448737
117	0xbcee08e0	-0.029056966
118	0x3b00657e	0.0019591744
119	0x3c9c6b5c	0.019094162
120	0xbb156463	-0.002279543
121	0x3c8a6b80	0.016896963
122	0x3d0a9b15	0.033839304
123	0x3c1faf7d	0.0097464295
124	0x3c5ce0cf	0.013481333
125	0xbb2249be	-0.0024763192
126	0x3c3d373f	0.011548816
127	0xbc11fa51	-0.008909778
128	0xbcd066f9	-0.025439726
129	0xbb003d28	-0.0019567702
130	0x3c784e21	0.015155346
131	0x3cdaced3	0.02670995
132	0x3bc418bd	0.0059843943
133	0x3b8317ee	0.0040006554
134	0xbb85430a	-0.0040668296
135	0x3c96b1e8	0.01839538
136	0xbc214014	-0.009841938
137	0xbbb7e981	-0.0056125526
138	0x3c962a68	0.018330768
139	0x3c9bb06c	0.019005023
140	0x3cf7ae5d	0.03023451
141	0x3bbe1183	0.0058004274
142	0x3bfa679b	0.0076417453
143	0x3cbd0716	0.023074668
144	0xbc5cf91a	-0.013487125
145	0xbb88e4a1	-0.0041776453
146	0x3c1fa982	0.009745004
147	0x3c816f91	0.01580027
148	0xbc7e11b2	-0.015507149
149	0xbb4eb4f0	-0.0031540953
150	0xbc162864	-0.009164903
151	0xbb4a9c23	-0.0030915819
152	0xbcc95de8	-0.02458091
153	0xbbd74aef	-0.006570212
154	0xbca964ea	-0.020678002
155	0xbb0090ee	-0.0019617635
156	0xbc178d37	-0.009249977
157	0xbc3ac64f	-0.0113998195
158	0xbcc00f8b	-0.023444911
159	0xbc95cd16	-0.01828627
160	0xbc7a5708	-0.015279539
161	0xbcdec6b2	-0.027194355
162	0xbd22f38c	-0.039783046
163	0xbd154da4	-0.036450997
164	0xbc248e07	-0.010043628
165	0xbd0f8d43	-0.035046827
166	0xbca60fbd	-0.020271176
167	0x3bbf411d	0.0058366195
168	0xbb0b4790	-0.0021252371
169	0xbc1ba9a1	-0.009500892
170	0xbc44a578	-0.012002341
171	0xbcaa406f	-0.020782677
172	0xbaaf07d1	-0.001335377
173	0x3c4a3be8	0.012343384
174	0xbba0c18b	-0.0049058846
175	0x3c18de82	0.009330394
176	0x3a0c16c4	0.00053439685
177	0x3d02d2a8	0.03193918
178	0x3c50666d	0.012719733
179	0x3d273925	0.04082598
180	0x3ca11f54	0.019668259
181	0x3d028cf7	0.031872716
182	0x3d063dd4	0.032773808
183	0x3ba0a745	0.0049027526
184	0x3c43dde4	0.011954758
185	0x3cb22236	0.021744829
186	0x3ca2c364	0.01986856
187	0x3d315830	0.043296993
188	0x3cbfaacf	0.023396878
189	0x3d31d194	0.04341276
190	0x3b3cb067	0.0028791667
191	0xbc16ff3b	-0.009216125
192	0x3b45d250	0.003018517
193	0x3c409195	0.011753459
194	0x3caa9494	0.0208228
195	0x3c92f208	0.017937675
196	0x3c743f88	0.014907725
197	0x3b330d29	0.0027321076
198	0x3c5306ab	0.012880008
199	0x3c1af953	0.009458858
200	0x3d4f089f	0.05054533
201	0x3c78f145	0.015194242
202	0x3bb19df1	0.0054204394
203	0x3cca0e10	0.024664909
204	0xbb05d625	-0.002042183
205	0x3bc61fa1	0.006046251
206	0x3cbd9639	0.02314292
207	0x3cc4dcb4	0.02403102
208	0xbcd60780	-0.026126623
209	0x3c94f581	0.018183472
210	0x3c8f4e39	0.017493354
211	0x3c86a56d	0.016436303
212	0xbb9da26e	-0.004810623
213	0x3a0f305b	0.00054622226
214	0xbbbe273b	-0.0058030165
215	0x3aca1371	0.0015417171
216	0x3c9144f1	0.01773307
217	0x3ce65e31	0.028121086
218	0x3cb862c1	0.022508027
219	0x3c72e090	0.014824048
220	0x3cb2c16e	0.02182075
221	0xbbd31e31	-0.006442808
222	0x3ab49c76	0.0013779539
223	0x3c2cd33b	0.010548408
224	0x3bb41b1d	0.005496396
225	0x3c60a726	0.013711726
226	0xbab76d03	-0.001399428
227	0x3c02fd1d	0.007994917
228	0x3b8e43b5	0.0043415674
229	0x3b7413d9	0.0037243275
230	0x3c606dc5	0.013698046
231	0x3c7b8527	0.01535157
232	0x3b8d5112	0.004312643
233	0x3c6762a7	0.014122642
234	0xbaff8d26	-0.0019497022
235	0x3caa0ba1	0.020757498
236	0x3c906610	0.017626792
237	0xbb5555bb	-0.003255232
238	0xb9fa7886	-0.00047773513
239	0xbb11608a	-0.0022182786
240	0x3aedb57d	0.0018135753
241	0xbb6835aa	-0.0035432377
242	0xbbed1d3a	-0.00723615
243	0x3cab5e1b	0.020918896
244	0x39e7954f	0.00044170997
245	0x3c9de100	0.019272327
246	0xbb7b45d1	-0.0038341174
247	0x3c11db1e	0.008902339
248	0xbdbb0cf1	-0.09133328
249	0x3a916e49	0.001109549
250	0xbbd42f31	-0.006475352
251	0xbc429359	-0.011875951
252	0x3c63137a	0.013859624
253	0x3c12af74	0.008952964
254	0x3be3f1d2	0.0069563175
255	0x3c0a8c0e	0.008456243

7.bias f4 [10]
0	0xbb80b498	-0.0039277785
1	0x3d23426b	0.039858263
2	0x3bef1b3f	0.007296949
3	0x3d9a1885	0.07524208
4	0x3d55ccea	0.052197374
5	0x3cb4becb	0.022063633
6	0x3cc87412	0.02446941
7	0x3b0fc040	0.0021934658
8	0x3c2db9de	0.010603396
9	0xbb869ee3	-0.0041082962
