resources/acc50_snn_cifar10.pth (torch, 392021 bytes, 6 tensors)

0.weight f4 [32, 3, 5, 5]
0	0xbe18cf4d	-0.14922829
1	0xbe1f7076	-0.15570244
2	0xbe34cb71	-0.17655732
3	0xbe9cf94b	-0.30658945
4	0xbec14fb2	-0.37756115
5	0xbc553eff	-0.013015508
6	0x3d778f27	0.060439255
7	0x3c433825	0.011915241
8	0xbddb4076	-0.10705654
9	0xbe0d1f09	-0.1378137
10	0x3cf4d8cf	0.029888539
11	0x3e0ae8c3	0.13565354
12	0x3d507fcd	0.05090313
13	0xbcfac7d8	-0.030612871
14	0xbe120f57	-0.14263664
15	0xbd804a15	-0.0626413
16	0xbdebe8a0	-0.11518979
17	0xbc8f1666	-0.017466735
18	0xbdd440eb	-0.103639446
19	0xbd183792	-0.03716237
20	0xbe4decc0	-0.20109844
21	0xbe2afa06	-0.16696939
22	0xbd1adea6	-0.03780999
23	0xbc985883	-0.018596893
24	0xbe635fcc	-0.22204512
25	0xbe3aed7d	-0.18254657
26	0xbe0261f0	-0.12732673
27	0xbe12e49c	-0.1434502
28	0xbea0b7f4	-0.31390345
29	0xbec298cb	-0.38007197
30	0xbe148d7c	-0.14507097
31	0x3e2c0d44	0.16801935
32	0x3d793c18	0.060848325
33	0x3cc0a886	0.023517858
34	0xbe1a6d9a	-0.15080872
35	0xbcf16ba3	-0.02947027
36	0x3dd71b64	0.10503271
37	0x3e755f89	0.23962225
38	0x3e1e6dec	0.1547162
39	0xbd559c87	-0.05215123
40	0xbdebb65e	-0.11509393
41	0x396befc7	0.0002250067
42	0x3dd3df88	0.103453696
43	0x3cd5de59	0.026107
44	0xbe4db97a	-0.20090285
45	0xbe62e71d	-0.22158475
46	0xbe800a45	-0.25007835
47	0xbe06acd4	-0.13151866
48	0xbe1b6ae0	-0.15177488
49	0xbdcd500d	-0.10025034
50	0x3d9fbf1d	0.07800124
51	0x3e52cb4c	0.20585364
52	0x3ea75a8d	0.32686272
53	0x3d9c1b18	0.07622355
54	0xbe835bcf	-0.25655982
55	0x3e9acc63	0.3023406
56	0x3ef9e53f	0.48807713
57	0x3f121e97	0.57077926
58	0x3eb84224	0.3598796
59	0x3cc781c9	0.024353879
60	0x3ecc481c	0.39898765
61	0x3eab1be3	0.33419713
62	0x3f143bb4	0.579036
63	0x3edb8290	0.4287305
64	0x3e73b09c	0.2379784
65	0x3e98038d	0.2969021
66	0x3ecbe1fd	0.39820853
67	0x3ef436c7	0.47698042
68	0x3e5f3112	0.21796063
69	0x3d502c98	0.050823778
70	0xbd408c0f	-0.04700857
71	0xbcb8da9d	-0.02256518
72	0x3dfa2a55	0.122151054
73	0x3e5239d9	0.2052988
74	0xbd2e0146	-0.042481683
75	0xbe42ff1a	-0.19042626
76	0xbb6feef8	-0.0036610942
77	0xbddecfdc	-0.1087949
78	0xbdef6d6f	-0.11690795
79	0xbd514c97	-0.051098432
80	0x3d7711d8	0.06031975
81	0xbdddf81d	-0.108383395
82	0xbd9c9b76	-0.07646839
83	0x3c6a469d	0.014299062
84	0x3c28774c	0.010282349
85	0x3d95c80c	0.073135465
86	0xbce4fe5f	-0.027953325
87	0xbd318afd	-0.04334544
88	0x3b90c061	0.0044174646
89	0x3ca42865	0.020038793
90	0xbd9db1db	-0.07699939
91	0x3d6b6d41	0.05747724
92	0x3c5dfcaf	0.013549014
93	0xbe39a452	-0.1812909
94	0xbdf80b26	-0.121115014
95	0x3c89132e	0.016732778
96	0xbd26fd13	-0.040768694
97	0xbe1fa77d	-0.15591235
98	0x3b94835f	0.004532262
99	0xbe093e92	-0.13402775
100	0xbdacb122	-0.08432223
101	0xbe446f02	-0.19182971
102	0xbd6ea0f1	-0.058258954
103	0xbe28fc87	-0.16502582
104	0xbe0a84d8	-0.13527238
105	0x3da6891b	0.081316195
106	0xbd81321e	-0.06308387
107	0xbe4dff23	-0.20116858
108	0xbd6f84b0	-0.05847615
109	0xbe98d70d	-0.2985157
110	0xbbd00f66	-0.006349492
111	0xbe596d48	-0.21233094
112	0xbe6311ce	-0.2217476
113	0xbe8c9377	-0.27456257
114	0xbe37d914	-0.17953902
115	0xbca28a75	-0.019841412
116	0xbe229993	-0.15878896
117	0xbe118185	-0.14209564
118	0xbe3a1af8	-0.1817435
119	0xbe20e033	-0.15710525
120	0x3d011a60	0.031519294
121	0xbdb95a06	-0.09050374
122	0xbe15f677	-0.146448
123	0x3bd52cf2	0.006505602
124	0x3cc6b515	0.024256269
125	0xbdd7e183	-0.1054106
126	0xbd9ddb1d	-0.07707808
127	0xbe08a617	-0.13344608
128	0xbe8a2256	-0.2697932
129	0xbe56a693	-0.2096198
130	0xbde58168	-0.11206323
131	0xbe0da754	-0.13833362
132	0xbe12eb05	-0.14347465
133	0xbe7cb45f	-0.24678181
134	0xbe6077d3	-0.2192071
135	0xbdae2db3	-0.0850481
136	0xbe75185b	-0.23935072
137	0xbe97e714	-0.29668486
138	0xbe9cc2f7	-0.30617496
139	0xbec301cd	-0.3808731
140	0xbe4a32f0	-0.19745994
141	0xbe9b4bf0	-0.30331373
142	0xbe92b5bc	-0.28654277
143	0xbeb7c006	-0.3588869
144	0xbea90494	-0.33011305
145	0xbe14252a	-0.14467302
146	0xbe4e985d	-0.2017531
147	0xbe3c0d2d	-0.18364401
148	0xbe005a3b	-0.1253442
149	0xbe387c46	-0.18016157
150	0xbe1a5314	-0.15070754
151	0xbe2e1c9e	-0.17003104
152	0xbdc7cdad	-0.097560264
153	0xbd99fb3b	-0.075186215
154	0xbe2114f8	-0.15730655
155	0xbe741a45	-0.23838146
156	0xbe5a5a7e	-0.21323583
157	0xbe65ee8a	-0.22454277
158	0xbe89aa8d	-0.26887932
159	0xbe4cf520	-0.20015383
160	0xbe855451	-0.2604089
161	0xbdd51b45	-0.10405592
162	0xbe2d9951	-0.16953017
163	0xbe6808d0	-0.22659612
164	0xbe5f5f68	-0.21813738
165	0xbe61cfdc	-0.22051948
166	0xbd958c0a	-0.07302101
167	0xbea7c919	-0.32770613
168	0xbe817a36	-0.25288552
169	0xbe832daa	-0.25620776
170	0xbd48f61c	-0.049062833
171	0xbd9bcfc3	-0.07607987
172	0xbe02d896	-0.12777933
173	0xbe73f8fe	-0.23825452
174	0xbe98b12f	-0.2982268
175	0xbe4ed88f	-0.20199798
176	0xbe2fd8fb	-0.17172615
177	0xbe02fb73	-0.12791233
178	0xbe21b98f	-0.15793441
179	0x3d34fc03	0.04418565
180	0xbe100d5c	-0.14067596
181	0xbe1a4c45	-0.15068157
182	0xbd55f95b	-0.052239757
183	0xbdab521f	-0.08365273
184	0xba3d3b32	-0.00072185986
185	0xbe450751	-0.19241072
186	0xbd9c4a52	-0.07631363
187	0xbc8adebc	-0.016951911
188	0xbdfdcfbf	-0.1239314
189	0xbdcaac73	-0.09896173
190	0xbd16eef2	-0.03684897
191	0xbe059cab	-0.13048045
192	0xbe69d1ce	-0.2283394
193	0xbdfd2f17	-0.12362497
194	0xbda80ad8	-0.08205193
195	0xbe0666e4	-0.13125187
196	0xbd06471e	-0.032782666
197	0xbddafbe9	-0.10692579
198	0xbe02bb8e	-0.12766859
199	0xbe0001df	-0.12500714
200	0xbda61b72	-0.081107035
201	0xbe35221f	-0.17688797
202	0xbe352250	-0.1768887
203	0xbc7f0c90	-0.01556696
204	0xbdb7e5c1	-0.08979369
205	0xbdad6ef1	-0.08468426
206	0xbe1589e2	-0.1460338
207	0xbe29edee	-0.16594669
208	0xbd78add2	-0.060712643
209	0xbe1efd34	-0.15526277
210	0xbd5cadc9	-0.053876672
211	0xbde94964	-0.11390951
212	0xbe53ffc3	-0.20703034
213	0xbe1d0e1e	-0.15337417
214	0xbe0dd72b	-0.13851611
215	0xbe316ce8	-0.173267
216	0xbddf9889	-0.10917766
217	0xbe67f0fa	-0.22650519
218	0xbe76327f	-0.240427
219	0xbd4bfe5a	-0.049803115
220	0xbc2a9ec1	-0.010413826
221	0xbe5ed98e	-0.21762678
222	0xbe029993	-0.12753896
223	0xbdb49453	-0.08817353
224	0xbd96979e	-0.073531374
225	0xbb7eaa65	-0.0038858887
226	0x3db789f7	0.089618616
227	0x3ec25409	0.3795474
228	0x3eb558fc	0.35419452
229	0x3e84c8d6	0.25934476
230	0x3d347110	0.044053137
231	0x3e181ca0	0.1485467
232	0x3ebf840b	0.37405428
233	0x3eaa83ff	0.3330383
234	0x3e1fc6ac	0.15603131
235	0xbea555b5	-0.32291952
236	0xbebeae96	-0.37242573
237	0xbe6f1bbf	-0.23350428
238	0xbe847d19	-0.25876692
239	0xbdb491e0	-0.08816886
240	0xbebb9e5c	-0.36644256
241	0xbf136047	-0.5756878
242	0xbf395705	-0.72398406
243	0xbf11e3f9	-0.56988484
244	0xbf1c2d8c	-0.61007
245	0xbdabdb50	-0.0839144
246	0xbec578a2	-0.38568598
247	0xbea2b329	-0.31777313
248	0xbed5ff37	-0.41796276
249	0xbedfa5bb	-0.4368113
250	0x3d998e2a	0.07497819
251	0x3e7b10a7	0.24518071
252	0x3ebd4afd	0.36971274
253	0x3e88dc70	0.2673068
254	0x3e42ee71	0.1903627
255	0x3e5d645d	0.21620317

0.bias f4 [32]
0	0xbfad159c	-1.352222
1	0xbdbafe47	-0.09130531
2	0xbd20844a	-0.03918866
3	0xbf1d5221	-0.61453444
4	0xbd3c16a1	-0.045920018
5	0x3cb1a2e2	0.021684114
6	0x3dd87938	0.10569996
7	0xbf00726f	-0.5017461
8	0xbe8bef3b	-0.27330956
9	0x3ef99233	0.48744354
10	0x3c1ccc86	0.009570247
11	0xbf34c16f	-0.70607656
12	0xbe82705e	-0.25476354
13	0x3f39e7ed	0.72619516
14	0xbec6ec9c	-0.38852394
15	0xbd81f313	-0.06345191
16	0xbf3183c3	-0.6934168
17	0xbde1a17d	-0.110171296
18	0xbedd24f6	-0.4319226
19	0xbab39582	-0.0013701173
20	0xbdc08eec	-0.0940226
21	0x3cedc1d7	0.029023094
22	0xbf1e5f06	-0.61863744
23	0xbd68146d	-0.056660105
24	0x3d7b06c4	0.06128575
25	0xbf08b735	-0.5340455
26	0xbf1a8015	-0.6035169
27	0xbf7dca62	-0.99136937
28	0x3d693391	0.056933943
29	0xbe265063	-0.16241603
30	0xbea8307a	-0.32849485
31	0xbd0a5eac	-0.033781692

3.weight f4 [64, 32, 5, 5]
0	0xbd611c06	-0.054958366
1	0xbdbb9d2f	-0.0916084
2	0xbdf86dc3	-0.121303104
3	0xbde5ea71	-0.11226357
4	0xbcadeae6	-0.021230172
5	0xbc8a4452	-0.01687828
6	0xbd43821a	-0.047731496
7	0xbd088b83	-0.033336174
8	0xbc74aa21	-0.01493314
9	0x3c4217e3	0.011846515
10	0xbc93b725	-0.018031666
11	0xbc288c93	-0.010287422
12	0xbc127056	-0.008937916
13	0x3d03c0d5	0.03216632
14	0x3cbe27b6	0.023212295
15	0xbd78b73c	-0.06072162
16	0xbcbe6a86	-0.023244154
17	0xbd2e5a84	-0.04256679
18	0xbc9efc6c	-0.019407474
19	0x3c63c231	0.013901279
20	0xbd639930	-0.055566013
21	0x3a8801a7	0.0010376469
22	0xbd1f74dd	-0.03892981
23	0x3b998379	0.004684862
24	0xbd0ab72f	-0.033866104
25	0x3b59c45f	0.0033228619
26	0xbd15e8b8	-0.03659889
27	0xbd73b27c	-0.059496388
28	0xbcc37938	-0.023861513
29	0xbd951ebd	-0.072812535
30	0xbcf08437	-0.02935992
31	0xbd604254	-0.054750755
32	0xbd827633	-0.06370201
33	0xbd07fb48	-0.033198625
34	0xbcaa1925	-0.020763943
35	0xbc845d0e	-0.016157653
36	0x3cacfb23	0.021115845
37	0x3cb31300	0.021859646
38	0xbcc491b4	-0.023995258
39	0xbcd8bad9	-0.026456283
40	0x3ca4c76a	0.02011462
41	0x3bd2dd1e	0.0064350506
42	0x3cd308f9	0.025761114
43	0xbcb651b0	-0.022255749
44	0xbae74449	-0.0017644252
45	0x3d52c180	0.051454067
46	0x3d089a34	0.033350185
47	0x3d4584d3	0.048222374
48	0x3c897fa4	0.016784497
49	0x3d3269ad	0.04355781
50	0xbd0d0fd1	-0.03443891
51	0x3cd8eb78	0.026479468
52	0xbca3f56b	-0.020014485
53	0xba6d56a2	-0.0009053742
54	0x3c855aee	0.01627871
55	0x3be6f6d8	0.007048469
56	0x3d0d5324	0.034503117
57	0x3bd9252c	0.0066267457
58	0xbce6d6ad	-0.028178537
59	0x3d0313c7	0.032001283
60	0xbbffad50	-0.007802643
61	0xbbf20ab1	-0.0073865284
62	0xbbf591c5	-0.0074941837
63	0x3c60ff75	0.013732781
64	0x3cdcc33d	0.026948566
65	0x3d1f6e69	0.038923655
66	0x3bca39de	0.006171449
67	0xbc8b491e	-0.017002638
68	0x3cf73d94	0.03018073
69	0xbaea3729	-0.0017869222
70	0x3cc030dd	0.0234608
71	0x3cf9b987	0.030483974
72	0xbc306eef	-0.010768636
73	0xbc9063f7	-0.017625792
74	0x3ce2b586	0.027674448
75	0xbe94fb07	-0.2909777
76	0xbe9803da	-0.29690439
77	0xbe8312bc	-0.2560023
78	0xbe6079c9	-0.21921457
79	0xbe375bc0	-0.17906094
80	0xbe58c6f7	-0.21169649
81	0xbe81d28d	-0.2535595
82	0xbe7462c1	-0.23865797
83	0xbe722b6a	-0.23649374
84	0xbe268c87	-0.16264544
85	0xbe29e759	-0.16592158
86	0xbe2f0c6f	-0.17094587
87	0xbe1a88ef	-0.15091299
88	0xbdefa16c	-0.11700711
89	0xbddd69d5	-0.108112015
90	0xbe13320a	-0.14374557
91	0xbe234c3e	-0.15947053
92	0xbdf08bdb	-0.11745425
93	0xbdaa62b9	-0.08319611
94	0xbdc09429	-0.09403259
95	0x3a66026a	0.00087741634
96	0xbb7eadf4	-0.0038861008
97	0xbc278fe7	-0.01022718
98	0x3d2e129b	0.042498212
99	0x3d80665f	0.06269526
100	0xbeab1773	-0.33416328
101	0xbe8f5bc0	-0.27999687
102	0xbe956897	-0.29181358
103	0xbe8740a2	-0.26416498
104	0xbe3cad90	-0.18425584
105	0xbeb1df6f	-0.3474078
106	0xbead45c9	-0.33842304
107	0xbeb417d5	-0.35174432
108	0xbea3b88f	-0.31976745
109	0xbe656e7a	-0.22405425
110	0xbef7145f	-0.4825773
111	0xbecae22b	-0.39625677
112	0xbeba8766	-0.36431426
113	0xbeb1c07f	-0.34717175
114	0xbe7f1547	-0.2491046
115	0xbeee76aa	-0.46574908
116	0xbecef961	-0.40424636
117	0xbed89da6	-0.42307776
118	0xbec55541	-0.38541606
119	0xbe84a623	-0.25908002
120	0xbeeb0871	-0.45904878
121	0xbec04777	-0.37554523
122	0xbed155dc	-0.40885818
123	0xbeac73ad	-0.33682004
124	0xbe70525c	-0.23468918
125	0xbc1cf34a	-0.009579489
126	0xbccdc71c	-0.025119357
127	0x3b824d48	0.003976498
128	0xbc6372ef	-0.013882383
129	0x3d2b1006	0.041763328
130	0x3cfeda4e	0.031109955
131	0x3cd8f474	0.026483752
132	0xba564f26	-0.0008175246
133	0x3d3b1211	0.045671526
134	0x3d2c013b	0.04199336
135	0x3d363d3e	0.044492
136	0x3c134b83	0.008990171
137	0xbbe846ea	-0.0070885317
138	0x3b12d532	0.0022404906
139	0x3c5d6c14	0.013514537
140	0xbc847a59	-0.016171621
141	0x3d3f0a8c	0.046640918
142	0x3d09dbdf	0.03365695
143	0x3bcf8a13	0.0063335984
144	0xbb7cdc12	-0.003858332
145	0x3d19d5b7	0.03755733
146	0x3d32dea4	0.043669358
147	0x3ba94337	0.0051654833
148	0x3d64c61d	0.055852998
149	0x3d1de192	0.0385452
150	0xbea44682	-0.32085043
151	0xbeb5332f	-0.35390612
152	0xbec77c63	-0.38962087
153	0xbeac0a70	-0.33601713
154	0xbe773006	-0.24139413
155	0xbe93ebd7	-0.2889087
156	0xbeb23cd4	-0.34812033
157	0xbec9b7af	-0.39397952
158	0xbec9d462	-0.39419848
159	0xbe9cd060	-0.30627728
160	0xbe9eda15	-0.31025758
161	0xbeafd35c	-0.34340942
162	0xbed743a3	-0.4204379
163	0xbebb37ab	-0.3656591
164	0xbe96fdbd	-0.29490462
165	0xbe9faa0a	-0.31184417
166	0xbeb1e436	-0.34744424
167	0xbec0fa93	-0.37691173
168	0xbe9c3d78	-0.30515647
169	0xbe76cc9a	-0.24101487
170	0xbe885f53	-0.26635227
171	0xbe901af1	-0.28145555
172	0xbea0275e	-0.31280035
173	0xbe8e9124	-0.27845109
174	0xbe3af363	-0.18256907
175	0xbd3ca382	-0.04605437
176	0xbd278661	-0.040899638
177	0x3bf8f26c	0.0075972583
178	0x3c9c36eb	0.019069156
179	0x3d176abc	0.036967024
180	0x3b0141be	0.0019723023
181	0xbd1ee150	-0.038789093
182	0xbd028863	-0.03186835
183	0x3d01a115	0.03164776
184	0x3d104d68	0.03523007
185	0xbc12584a	-0.008932183
186	0x3c8d4976	0.017246943
187	0x3cc431b8	0.023949489
188	0xbc88a6d8	-0.01668112
189	0x3c946566	0.018114757
190	0xbcd4092a	-0.025883276
191	0x3c830a91	0.01599625
192	0xbb99ea57	-0.004697125
193	0xbc15f18a	-0.009151826
194	0x3cc6aec0	0.02425325
195	0xbce4b6fe	-0.027919289
196	0xbce851cf	-0.028359322
197	0x3ba5cc5f	0.0050597633
198	0xbc530d7e	-0.012881635
199	0x3c54a46e	0.012978656
200	0xbcb8aa69	-0.022542195
201	0xbd1a43f2	-0.037662454
202	0xbd0eeec6	-0.03489568
203	0x3c939ed3	0.01802007
204	0x3c01c65c	0.007920828
205	0x3cf4f41c	0.029901557
206	0xbc2a3f34	-0.010391045
207	0xbcab6b6f	-0.020925252
208	0xbccc2324	-0.0249191
209	0xbce3ddc4	-0.027815707
210	0x3c484710	0.012223974
211	0xbcccc5ed	-0.024996722
212	0xb8ce4c22	-9.837026e-05
213	0x3cfa2070	0.030533046
214	0x3b96a662	0.004597471
215	0x3c69e3d9	0.0142755145
216	0x3c28d060	0.010303587
217	0xbcad91aa	-0.021187622
218	0x3a3f9af2	0.00073091604
219	0xbb7abbfc	-0.003825902
220	0xbc2fbe16	-0.010726472
221	0x3cb09c3a	0.02155887
222	0xbd0ae381	-0.03390837
223	0x3ceea282	0.029130224
224	0xbc2c9428	-0.01053337
225	0xbc92afb1	-0.017906042
226	0xbd434213	-0.047670435
227	0x3c55c18a	0.013046632
228	0xbbfba27c	-0.0076792818
229	0xbd288aea	-0.041148104
230	0x3c5f4b87	0.013628847
231	0x3a11aa52	0.0005556691
232	0xbc183500	-0.00928998
233	0xbc07a48e	-0.008278979
234	0xbcf73c1d	-0.030180031
235	0xbd20e706	-0.03928282
236	0xbcd07581	-0.025446655
237	0xbca98721	-0.020694317
238	0xbd426213	-0.047456812
239	0xbb1ce16a	-0.0023938068
240	0xbd34071e	-0.0439521
241	0xbd23c2cf	-0.039980706
242	0xbd618772	-0.05506081
243	0xbcdc5396	-0.026895326
244	0xbcef9c23	-0.029249256
245	0xbcf2e703	-0.02965117
246	0x3b85e4b9	0.0040861038
247	0xbc0d3caa	-0.0086204205
248	0xbc945607	-0.018107427
249	0x3b691ae6	0.0035569011
250	0xbf467788	-0.7752614
251	0xbf506389	-0.8140188
252	0xbf538fea	-0.8264147
253	0xbf41ccd3	-0.7570316
254	0xbf18e377	-0.59722084
255	0xbf657367	-0.89629215

3.bias f4 [64]
0	0xbf3e33f4	-0.74298024
1	0xbf75be65	-0.95993644
2	0xbfad1f59	-1.3525192
3	0xbff4e740	-1.9133072
4	0xbe1836bf	-0.14864634
5	0xbeb7ca54	-0.35896552
6	0xbec5ee12	-0.38658196
7	0xbe40ad3a	-0.1881608
8	0xbf151288	-0.582314
9	0xbff65e66	-1.9247558
10	0xc0030049	-2.0468924
11	0xbfeb24b1	-1.8370572
12	0xbf8cbf2a	-1.0995839
13	0xbf5f127f	-0.871376
14	0xbfe5f619	-1.7965728
15	0xbde5fe5d	-0.112301566
16	0xbfdf26ef	-1.7433757
17	0xbfbabbc7	-1.4588555
18	0xbf6162ab	-0.8804118
19	0xc01c41d2	-2.4415174
20	0xbf0a387e	-0.5399245
21	0xbedd4098	-0.43213344
22	0xbf1a1a61	-0.601965
23	0xbf86c016	-1.052737
24	0xbec5e7e6	-0.38653487
25	0x3e44eef6	0.19231781
26	0xc02cf9c3	-2.7027442
27	0x3f25b68a	0.6473166
28	0xbedb6c08	-0.4285586
29	0x3dd6821b	0.104740344
30	0xbeb77aae	-0.35835785
31	0x3d4155a0	0.0472008
32	0xc0061aeb	-2.095393
33	0xbfe96301	-1.8233339
34	0xbf4df8a8	-0.80457544
35	0x3e470654	0.19436008
36	0xbed41e77	-0.41429493
37	0xbf7baf97	-0.98314804
38	0x3e6d7e74	0.2319277
39	0x3ca31f3c	0.019912355
40	0xbe449847	-0.19198714
41	0xbf61d5cc	-0.88216853
42	0xc003dc76	-2.0603309
43	0xbedf7cf0	-0.43650007
44	0xc00eee7b	-2.2333057
45	0xbf8f467c	-1.1193385
46	0x3eb698ed	0.35663548
47	0xbee9a2fd	-0.45632163
48	0xc00ae9ae	-2.1705127
49	0x3f2b8c12	0.67010605
50	0xbff9f104	-1.9526677
51	0xbe5dff03	-0.2167931
52	0xbf17e627	-0.5933556
53	0xc00deb5e	-2.2174907
54	0xbeb5c541	-0.35502055
55	0xc005e89e	-2.0923228
56	0xbfb85f87	-1.4404153
57	0x3ed61781	0.41814807
58	0x3c386f7b	0.011257048
59	0xbf5ccc53	-0.86249274
60	0xbf2d105e	-0.676031
61	0xbfdd5f69	-1.7294742
62	0x3e254aab	0.16141765
63	0xbf53852e	-0.8262509

7.weight f4 [10, 4096]
0	0xbc77dc21	-0.015128166
1	0xbb9771fe	-0.004621743
2	0x3c1a1ece	0.0094067585
3	0x3b642640	0.0034812838
4	0xbc02cd1c	-0.007983472
5	0x3b9e51db	0.0048315353
6	0x3b1d2385	0.002397747
7	0xbd1b6227	-0.037935402
8	0x3b48d217	0.0030642801
9	0xbb034616	-0.0020030788
10	0xbc09b022	-0.00840381
11	0xbc373eb3	-0.011184382
12	0x3af27448	0.0018497789
13	0x3c55b63c	0.013043936
14	0xbc2202fd	-0.009888408
15	0xbc8a07f2	-0.016849492
16	0x3c165e1b	0.00917771
17	0xbc5604eb	-0.013062696
18	0x3bdedaea	0.006800999
19	0x3ba035b4	0.0048892144
20	0x3c11af32	0.0088918675
21	0xbcef7fb3	-0.029235696
22	0x3c21c23b	0.009872968
23	0xbd07165c	-0.032980308
24	0x3c29617a	0.010338182
25	0xbb85590b	-0.0040694526
26	0xbc5e2451	-0.013558463
27	0xb96678d8	-0.00021979527
28	0x3b31abf6	0.0027110553
29	0xbbedb147	-0.007253799
30	0xbb487bc1	-0.0030591341
31	0xbcd47d0a	-0.02593853
32	0x3b6e0756	0.003632029
33	0xbc2ec07c	-0.010666009
34	0xbc8a1c1d	-0.016859109
35	0xbca41a76	-0.020032149
36	0x3b0c6be6	0.0021426617
37	0x3bfa4d08	0.0076385774
38	0xbc1d5c30	-0.009604499
39	0xbcc1ff22	-0.023681227
40	0x3bada2d6	0.0052989526
41	0xbba7ddcd	-0.0051228763
42	0xbb94f732	-0.0045460695
43	0x3c0c4bd5	0.008563002
44	0xbbfde38e	-0.007748074
45	0x3c543467	0.012951947
46	0x3cad1621	0.021128716
47	0xbb13e14b	-0.0022564705
48	0x3aef6f3b	0.0018267402
49	0x3ce3d4e2	0.027811471
50	0x3c8e5699	0.017375277
51	0x3a880be6	0.0010379523
52	0x3c45c072	0.012069808
53	0x3cffb2a1	0.031213107
54	0x3ac06158	0.0014677448
55	0xbca26586	-0.0198238
56	0x3bf54e1b	0.0074861175
57	0x3b9634c3	0.0045839264
58	0x3c6d1a37	0.014471582
59	0xbb3445d1	-0.0027507434
60	0x3c7a6682	0.015283229
61	0x3c89eff8	0.016838059
62	0x3b99f689	0.0046985787
63	0xbbd80957	-0.0065929103
64	0x3e5bbd86	0.21459016
65	0x3f37a74b	0.71739644
66	0x3f1654b7	0.58723015
67	0x3f0e436d	0.55571634
68	0x3eed5bbb	0.46359047
69	0xbe93cd6e	-0.28867668
70	0xbe5175d1	-0.204551
71	0xbe27d26a	-0.1638886
72	0x3eb4774b	0.35247263
73	0x3ec1cd6b	0.37852034
74	0x3f43d60e	0.76498497
75	0x3f1eb74c	0.6199844
76	0xbdf80806	-0.12110905
77	0xbf28d6ac	-0.65952563
78	0xbeb02f19	-0.34410933
79	0xbe9aaf8b	-0.30212054
80	0x3f28db63	0.6595976
81	0x3f1f057c	0.62117743
82	0x3ee7a095	0.45239702
83	0xbe663d2f	-0.22484277
84	0xbd26bc66	-0.040707015
85	0xbed95e17	-0.42454597
86	0xbeafa153	-0.34302768
87	0xbeea9d3c	-0.45823085
88	0x3db19c67	0.086724095
89	0xbebca015	-0.36840883
90	0x3e60a078	0.21936214
91	0x3e1f8dfa	0.15581504
92	0x3c04f481	0.008114935
93	0xbcbf57ae	-0.023357239
94	0xbdc052c9	-0.0939079
95	0xbf2a9862	-0.6663877
96	0xbf4bac50	-0.79559803
97	0xbf5a29fc	-0.85220313
98	0xbe2b9af1	-0.16758324
99	0x3e8f4a89	0.27986553
100	0xbeb60a3d	-0.35554686
101	0x3d976af8	0.073934495
102	0xbea7589e	-0.32684797
103	0x3d4f54c4	0.05061795
104	0xbf29b94f	-0.66298383
105	0xbf9f66ea	-1.2453282
106	0xbde2bb7a	-0.110709146
107	0x3eba4a2f	0.36384723
108	0xbdb19ebe	-0.08672856
109	0xbd03fd79	-0.032224152
110	0xbd9a388e	-0.07530318
111	0x3e80dc00	0.25167847
112	0xbe42ef60	-0.19036627
113	0xbe6f314e	-0.23358652
114	0x3e9aeec6	0.30260295
115	0x3f0857d6	0.53259027
116	0x3f254461	0.6455746
117	0x3f412193	0.75441855
118	0x3e53ce62	0.20684198
119	0xbe084faa	-0.1331164
120	0x3c69a0fd	0.014259574
121	0xbd67c26d	-0.056581903
122	0xbee2d4f4	-0.44303095
123	0x3d339ff9	0.043853734
124	0xbf61f47b	-0.8826367
125	0xbee99fd4	-0.45629752
126	0xbf3d1685	-0.7386249
127	0xbf0f17f3	-0.5589592
128	0xbb3e43e8	-0.0029032174
129	0x3c66302b	0.01404957
130	0x3c8a51fb	0.016884794
131	0x3caedb5a	0.02134483
132	0x3c8d6ec3	0.01726473
133	0x3c03eced	0.008052093
134	0xbb0003ef	-0.0019533595
135	0x3b46753a	0.0030282275
136	0xbb303548	-0.0026887227
137	0x3cc3e9e3	0.023915237
138	0x3c33a8b7	0.010965518
139	0xbaec6808	-0.0018036375
140	0xbbade80d	-0.0053072036
141	0xbbc6e61a	-0.0060699107
142	0x3bcf0ab3	0.006318414
143	0x3ab6c3d4	0.0013943859
144	0xbbfef86c	-0.007781079
145	0x3cab1f79	0.02088903
146	0x3cd1caa1	0.025609316
147	0x3ce85cc3	0.028364545
148	0x3d4c8df6	0.049940072
149	0x3d41ef39	0.04734728
150	0xbd18958a	-0.037251987
151	0xbb0b3fc0	-0.0021247715
152	0xbc40a402	-0.0117578525
153	0x38d0de5c	9.9596306e-05
154	0x3d938db0	0.07204759
155	0x3c976f24	0.018485613
156	0xbc9e9548	-0.019358292
157	0x3cbd80f8	0.023132786
158	0xbd2bb6d3	-0.0419224
159	0xbc00a872	-0.0078526605
160	0x3c2dd38c	0.010609519
161	0xb91a7903	-0.00014731665
162	0x3c5a7fa4	0.013336096
163	0x3c4b889c	0.012422707
164	0x3ca82b22	0.02052838
165	0xbd7e310d	-0.062058497
166	0xbd3d4004	-0.04620363
167	0xb8ef4ceb	-0.00011410735
168	0x3a0cb180	0.0005367026
169	0xbb5eba0b	-0.0033985402
170	0x3c732c73	0.0148421405
171	0x3b2bb6de	0.0026201527
172	0xbd5dc913	-0.054146837
173	0xbd1e7094	-0.03868158
174	0xbd220bfc	-0.03956221
175	0xbc10b56e	-0.008832319
176	0xbb5f3310	-0.0034057535
177	0x3c9b8f79	0.018989312
178	0x3c6cb4a9	0.01444737
179	0x3bfe4111	0.0077592214
180	0x3bccd739	0.0062512425
181	0x3c19935b	0.009373511
182	0x3c17ee54	0.00927313
183	0x3b1b2f7e	0.002367943
184	0x3c6a77cc	0.014310788
185	0x3c289a28	0.01029066
186	0xbb22ea38	-0.0024858844
187	0xbb1ee168	-0.002424324
188	0xbbae0490	-0.0053106025
189	0xbbb03d04	-0.0053783674
190	0xbc9dbeaf	-0.019255964
191	0xbc212c86	-0.009837275
192	0x3b54f362	0.00324937
193	0xbc2fc831	-0.010728882
194	0xbc76d3b3	-0.015065121
195	0x3b1c0780	0.0023808181
196	0xbbff6f20	-0.0077952296
197	0x3c5e2510	0.013558641
198	0x3ac2e430	0.001486903
199	0xbc694ac1	-0.014239014
200	0xbbf494ce	-0.007464028
201	0xbc11479b	-0.00886717
202	0xbc81b239	-0.015832053
203	0xbc84a8b0	-0.016193718
204	0xbc930643	-0.017947322
205	0xbcc1684c	-0.023609303
206	0xbb2c7704	-0.0026316056
207	0x3b84d971	0.0040542413
208	0x3a9b7196	0.0011859413
209	0xbb9f50d7	-0.004861932
210	0xbbfc3190	-0.007696338
211	0xbbc6d7da	-0.006068212
212	0xbc7b12d6	-0.015324315
213	0xbc0ee31d	-0.00872114
214	0xbbc7b24f	-0.006094254
215	0xbc018490	-0.0079051405
216	0x3c1ab89d	0.009443429
217	0xbb3924c0	-0.0028250664
218	0xbc990dbc	-0.018683307
219	0x39aaffb8	0.00032615452
220	0xbb8f27c5	-0.0043687546
221	0xbb9c053e	-0.004761367
222	0xba86e79c	-0.0010292414
223	0xbb17b373	-0.0023147732
224	0xbc04effa	-0.0081138555
225	0xbc54c57c	-0.012986537
226	0x3c8fa57e	0.017534968
227	0x3b1c555b	0.0023854587
228	0x3ca8e911	0.020618947
229	0xbd3b3eb5	-0.0457141
230	0xbc544331	-0.012955473
231	0x3bb0b426	0.005392569
232	0xbb68e083	-0.003553421
233	0xbcee9450	-0.029123455
234	0x3c5f3668	0.013623811
235	0x3b7ab88f	0.0038256978
236	0x3be894a6	0.0070977984
237	0x3b57d528	0.0032933448
238	0x3ba05990	0.004893489
239	0xbca4eadd	-0.020131523
240	0x3ab6317d	0.0013900247
241	0x3bc6cd02	0.0060669193
242	0xbc60711a	-0.0136988405
243	0x3b30bb32	0.0026967046
244	0xbc2df21e	-0.010616807
245	0xbbddf686	-0.0067737726
246	0x3c70040a	0.0146494005
247	0xbc29101b	-0.010318781
248	0xbb653752	-0.00349756
249	0xbccf94dc	-0.025339536
250	0xbae89cc3	-0.0017746914
251	0x3c4d0cbf	0.012515246
252	0xbd087b6b	-0.033320826
253	0xbb8854d9	-0.0041605053
254	0xbca27c7c	-0.01983475
255	0xbcd12285	-0.025529156

7.bias f4 [10]
0	0x3f0fbb8b	0.5614554
1	0x3ea8e3ac	0.329862
2	0xbcd284a9	-0.025698023
3	0xbd290bf6	-0.041271172
4	0x3f2603e6	0.648497
5	0xbf1cc28c	-0.61234355
6	0x3f7de8f9	0.99183613
7	0x3d0be55f	0.034154292
8	0x3ef55858	0.47918963
9	0x3ea5c91e	0.32380003
